…
Layer (type)                    Output Shape         Param #     Connected to                     
==================================================================================================
seq_input (InputLayer)          [(None, 437, 21)]    0                                            
__________________________________________________________________________________________________
encoder (Model)                 [(None, 96), (None,  4879808     seq_input[0][0]                  
__________________________________________________________________________________________________
sampler (Model)                 (None, 96)           0           encoder[1][0]                    
                                                                 encoder[1][1]                    
__________________________________________________________________________________________________
decoder (Model)                 (None, 437, 21)      4864217     sampler[1][0]                    
==================================================================================================
Total params: 9,744,025
Trainable params: 9,744,025
Non-trainable params: 0
__________________________________________________________________________________________________
Model: "encoder"
__________________________________________________________________________________________________
Layer (type)                    Output Shape         Param #     Connected to                     
==================================================================================================
enc_seq_input (InputLayer)      [(None, 437, 21)]    0                                            
__________________________________________________________________________________________________
flatten (Flatten)               (None, 9177)         0           enc_seq_input[0][0]              
__________________________________________________________________________________________________
dropout (Dropout)               (None, 9177)         0           flatten[0][0]                    
__________________________________________________________________________________________________
enc_dense_0 (Dense)             (None, 512)          4699136     dropout[0][0]                    
__________________________________________________________________________________________________
activation (Activation)         (None, 512)          0           enc_dense_0[0][0]                
__________________________________________________________________________________________________
dropout_1 (Dropout)             (None, 512)          0           activation[0][0]                 
__________________________________________________________________________________________________
enc_dense_1 (Dense)             (None, 256)          131328      dropout_1[0][0]                  
__________________________________________________________________________________________________
activation_1 (Activation)       (None, 256)          0           enc_dense_1[0][0]                
__________________________________________________________________________________________________
dropout_2 (Dropout)             (None, 256)          0           activation_1[0][0]               
__________________________________________________________________________________________________
mean_dense (Dense)              (None, 96)           24672       dropout_2[0][0]                  
__________________________________________________________________________________________________
var_dense (Dense)               (None, 96)           24672       dropout_2[0][0]                  
==================================================================================================
Total params: 4,879,808
Trainable params: 4,879,808
Non-trainable params: 0
__________________________________________________________________________________________________
Model: "decoder"
_________________________________________________________________
Layer (type)                 Output Shape              Param #   
=================================================================
dec_latent_input (InputLayer [(None, 96)]              0         
_________________________________________________________________
dropout_3 (Dropout)          (None, 96)                0         
_________________________________________________________________
dec_dense_0 (Dense)          (None, 256)               24832     
_________________________________________________________________
activation_2 (Activation)    (None, 256)               0         
_________________________________________________________________
dropout_4 (Dropout)          (None, 256)               0         
_________________________________________________________________
dec_dense_1 (Dense)          (None, 512)               131584    
_________________________________________________________________
activation_3 (Activation)    (None, 512)               0         
_________________________________________________________________
dropout_5 (Dropout)          (None, 512)               0         
_________________________________________________________________
dec_upsample (Dense)         (None, 9177)              4707801   
_________________________________________________________________
reshape (Reshape)            (None, 437, 21)           0         
_________________________________________________________________
activation_4 (Activation)    (None, 437, 21)           0         
=================================================================
Total params: 4,864,217
Trainable params: 4,864,217
Non-trainable params: 0
_________________________________________________________________

Cui_et_al_2021
Epoch 1/1000
8/8 - 0s - loss: 1.2144 - accuracy: 0.5404 - auc: 0.5691 - tfmcc: 0.0662 - val_loss: 1.1335 - val_accuracy: 0.5857 - val_auc: 0.6215 - val_tfmcc: 0.1385 - lr: 0.0100
…
